models/model.pth (torch, 378536 bytes, 8 tensors)

conv1.weight f4 [32, 1, 3, 3]
-0.122168384 0.10837675 0.18679011 -0.31250462 0.43804547 -0.26875192 0.101611756 0.21906486
-0.5481682 -0.1422818 -0.5236767 -0.19237009 -0.21024422 0.26245028 0.08266175 0.22944084
-0.112433515 0.42717487 -0.30548644 -0.29788998 -0.30874175 0.42303005 -0.22988144 -0.46931058
0.51937616 0.092062674 -0.4526304 0.22434293 -0.16195132 0.014586606 0.24161595 0.2765952
0.105206385 -0.46558884 -0.18718041 -0.16572925 0.028752446 -0.2869605 -0.09339741 -0.06512128
0.1804944 -0.14609234 0.3695269 -0.05535732 -0.3623375 -0.033606168 0.18035994 -0.16453569
-0.09820779 0.09639173 0.10090402 0.01440238 -0.22151004 0.057512876 -0.00896894 0.21800354
-0.16984989 0.2936421 0.36221096 -0.3879821 0.37131545 -0.30999196 -0.5185645 0.018870758
0.23349555 -0.32019672 0.024746502 -0.08121776 0.18686228 0.00055585353 0.17512868 -0.32250562
0.13088092 -0.42951146 0.12514886 0.23305726 -0.04601036 -0.45244676 0.10691194 0.36386475
-0.1447763 0.15016535 -0.11374603 0.23347017 -0.2117818 -0.33960328 0.24512498 0.21379794
-0.0252607 -0.22395042 -0.09091939 0.07438333 -0.40394282 -0.3316863 -0.47505578 -0.13919085
-0.08556408 0.35622162 0.45334405 -0.30548236 -0.46014974 -0.24906822 0.06929966 -0.048024774
-0.18423708 0.44186717 0.28533384 0.35634094 0.24446064 -0.25165752 0.16599996 -0.22135133
-0.4171993 -0.068639666 0.028406566 0.14707053 0.35481733 0.07587636 0.09648544 -0.30752218
0.28453794 -0.08654315 -0.45778236 0.28914985 0.30061337 -0.37038308 -0.39003184 -0.17827392
0.23220994 0.056726523 -0.081473745 0.19972555 0.10726855 -0.3014011 0.18497506 -0.11542892
-0.27485472 -0.49782214 -0.31374574 -0.006758299 -0.40718046 -0.44645643 -0.3798478 -0.074385874
-0.25547248 -0.44124064 -0.38250303 -0.41678953 -0.19393632 0.27727133 -0.309126 0.21515994
0.20930251 0.06941772 0.031152595 -0.2776424 -0.08904054 -0.15511188 -0.12100346 0.19711827
0.27989736 0.11204126 -0.3166036 -0.49336958 0.17043252 -0.48095593 0.24665375 0.25203383
-0.3701806 0.21293084 0.17960814 -0.07081344 -0.0629581 0.23464853 -0.26420283 -0.039771687
0.41927594 -0.49149537 -0.37810996 0.45139906 -0.40847877 -0.4092147 -0.23169036 0.14138512
0.3628291 -0.09796274 0.14075631 0.19233066 -0.16666633 -0.082255 -0.18167987 -0.6237585
0.123550035 -0.18288505 0.12996961 0.27915066 0.4991792 0.08073091 -0.02864463 -0.0047152424
0.10545534 -0.20924225 -0.123245165 -0.15013497 0.20774743 -0.041997995 0.12189988 -0.19063814
-0.059297096 -0.28085262 0.18051569 0.2824066 0.1953535 -0.06393431 -0.44601178 0.13368225
-0.11158383 0.66178316 0.52388114 -0.41452464 -0.2838993 -0.102651946 -0.3937874 -0.48140413
-0.4152048 -0.16485189 0.14788184 0.22318135 -0.042082738 0.098343424 0.14653976 0.09232938
0.15205143 -0.042318426 0.31414577 0.47950444 0.025075551 0.1733352 0.05475422 -0.51138926
0.06326905 -0.36811253 -0.4634421 0.17514399 -0.1420399 -0.1663465 0.007128122 0.0913297
-0.037135754 -0.40926984 0.25800428 -0.08261465 0.13324396 0.12606195 -0.06660634 -0.17363372
00000000: 6b33 fabd a1f4 dd3d e845 3f3e 9b00 a0be
00000010: 7f47 e03e da99 89be d319 d03d 8a52 603e
00000020: c054 0cbf 52b2 11be ad0f 06bf aafc 44be
00000030: 434a 57be e25f 863e 904a a93d 8af2 6a3e
00000040: 8b43 e6bd aab6 da3e b868 9cbe 0985 98be
00000050: 6613 9ebe 6597 d83e 0a66 6bbe 7a49 f0be
00000060: d6f5 043f 5b8b bc3d 2cbf e7be 27ba 653e
00000070: 91d6 25be a9fc 6e3c 2c6a 773e e39d 8d3e
00000080: 7276 d73d a961 eebe 39ac 3fbe eeb4 29be
00000090: 408a eb3c 7dec 92be 2447 bfbd 4e5e 85bd
000000a0: 86d3 383e 3b99 15be a132 bd3e 5bbe 62bd
000000b0: 4d84 b9be 9fa6 09bd 47b0 383e 0b7c 28be
000000c0: 2a21 c9bd 0769 c53d c4a6 ce3d f6f7 6b3c
000000d0: 87d3 62be 9f92 6b3d 76f2 12bc 523c 5f3e
000000e0: 21ed 2dbe 4258 963e b773 b93e 97a5 c6be
000000f0: 0f1d be3e 44b7 9ebe a5c0 04bf d996 9a3c
00000100: 7519 6f3e d3f0 a3be 2db9 ca3c 7f55 a6bd
00000110: d358 3f3e b3b6 113a ef54 333e 751f a5be
00000120: a605 063e ede8 dbbe 0627 003e 90a6 6e3e
00000130: 5c75 3cbd 1aa7 e7be a6f4 da3d 7b4c ba3e
00000140: 3d40 14be f2c4 193e aef3 e8bd ce12 6f3e
00000150: 54dd 58be 7be0 adbe 0b02 7b3e d9ed 5a3e
00000160: 87ef cebc 4253 65be f233 babd 4a56 983d
00000170: 98d1 cebe c9d2 a9be 833a f3be 0c88 0ebe
00000180: 383c afbd ae62 b63e b61c e83e 2f68 9cbe
00000190: bf98 ebbe bd0b 7fbe fbec 8d3d a0b5 44bd
000001a0: a5a8 3cbe 6a3c e23e 4717 923e 5272 b63e
000001b0: e453 7a3e 41d9 80be e5fb 293e eca9 62be
000001c0: 269b d5be f492 8cbd e3b4 e83c a899 163e
000001d0: 9eaa b53e 1165 9b3d 299a c53d 8c73 9dbe
000001e0: f5ae 913e 893d b1bd 7362 eabe 730b 943e
000001f0: ffe9 993e daa2 bdbe 41b2 c7be 708d 36be
00000200: 71c8 6d3e 125a 683d b5db a6bd db84 4c3e
00000210: 9daf db3d 3f51 9abe 1a6a 3d3e ff65 ecbd
00000220: c2b9 8cbe 8be2 febe 48a3 a0be b974 ddbb
00000230: f579 d0be f095 e4be 697b c2be 9f57 98bd
00000240: 4acd 82be 4bea e1be 70d7 c3be 7065 d5be
00000250: 3e97 46be 82f6 8d3e c345 9ebe e352 5c3e
00000260: 6653 563e e12a 8e3d ba33 ff3c 2527 8ebe
00000270: e35a b6bd a6d5 1ebe a9d0 f7bd 5fd9 493e
00000280: b54e 8f3e e375 e53d de19 a2be f09a fcbe
00000290: dd85 2e3e db3f f6be cd92 7c3e 940a 813e
000002a0: 5088 bdbe 8b0a 5a3e 32eb 373e a306 91bd
000002b0: 2df0 80bd b447 703e 9845 87be a3e7 22bd
000002c0: 56ab d63e 48a5 fbbe a197 c1be c71d e73e
000002d0: 2124 d1be 9784 d1be 3d40 6dbe 43c7 103e
000002e0: bcc4 b93e b0a0 c8bd 6c22 103e 54f2 443e
000002f0: 94aa 2abe 4f75 a8bd 4a0a 3abe a3ae 1fbf
00000300: cd07 fd3d 3846 3bbe c116 053e d6ec 8e3e
00000310: 6b94 ff3e 3f56 a53d 25a8 eabc 5282 9abb
00000320: f8f8 d73d 9a43 56be f667 fcbd fbbc 19be
00000330: bebb 543e 1706 2cbd a5a6 f93d a536 43be
00000340: 83e1 72bd eacb 8fbe 1bd9 383e 9997 903e
00000350: bf0a 483e feef 82bd a85b e4be 00e4 083e
00000360: 1086 e4bd 9f6a 293f 131d 063f 933c d4be
00000370: 405b 91be 2f3b d2bd 819e c9be 9a7a f6be
00000380: b995 d4be efce 28be 566e 173e a789 643e
00000390: f35e 2cbd 4768 c93d 850e 163e 3017 bd3d
000003a0: 5fb3 1b3e 1656 2dbd b7d7 a03e 9b81 f53e
000003b0: 3e6b cd3c c87e 313e f645 603d 68ea 02bf
000003c0: 3493 813d 3f79 bcbe 4848 edbe f258 333e
000003d0: e872 11be bd56 2abe 0593 e93b 110b bb3d
000003e0: a91b 18bd d18b d1be 2319 843e df31 a9bd
000003f0: 1b71 083e 6216 013e e868 88bd 0acd 31be

conv1.bias f4 [32]
-0.21899478 -0.19185066 -0.23122242 -0.37123126 -0.18503577 -0.32978785 -0.1356862 -0.23991045
-0.11161153 -0.0796735 -0.22085966 -0.07855259 -0.12599897 -0.092681855 -0.35829046 0.2356479
0.05377691 -0.20197709 -0.2543959 -0.15052377 -0.18257953 -0.14872302 -0.07885212 -0.114536986
-0.21597528 -0.5351058 -0.2180345 -0.07100853 -0.15568352 -0.13985991 -0.26189214 0.36235344
00000000: 2b40 60be 8074 44be 92c5 6cbe 0612 bebe
00000010: 047a 3dbe f4d9 a8be 53f1 0abe 16ab 75be
00000020: 9694 e4bd dc2b a3bd 0929 62be 2ee0 a0bd
00000030: e005 01be fccf bdbd d971 b7be af4d 713e
00000040: 2d45 5c3d 15d3 4ebe 2e40 82be e722 1abe
00000050: 21f6 3abe d94a 18be 387d a1bd 5e92 eabd
00000060: a028 5dbe b2fc 08bf 7044 5fbe ec6c 91bd
00000070: 806b 1fbe 7037 0fbe ba16 86be 6486 b93e

conv2.weight f4 [64, 32, 3, 3]
-0.015724141 0.25279212 -0.012005264 0.019456828 0.12870787 -0.32874206 -0.14474462 -0.18471484
-0.11145524 0.08598019 0.00760941 -0.21050575 0.028907368 0.025060195 0.11019182 0.10929301
0.13649553 0.13256459 -0.11227995 0.034452815 0.033014618 -0.2531293 -0.09815767 -0.17987303
-0.11082337 -0.14091584 0.0013922299 0.15082452 0.094620354 0.098325 0.026462836 -0.022217946
-0.2174735 -0.056613483 -0.052026194 -0.07148833 -0.054659415 0.13861807 0.10886786 -0.084089205
-0.012629123 -0.20561585 -0.073127374 0.081118844 -0.18561046 0.034825657 0.0422645 -0.11395127
-0.042495888 -0.05703985 -0.06954119 -0.02650473 -0.023087686 0.017388597 -0.076003686 0.20769751
0.22472338 -0.0028108994 0.05449177 -0.26825327 0.0667813 -0.13132703 -0.029464034 0.029960219
0.08438684 0.112288445 -0.115106255 0.014895628 -0.03737842 0.075846665 -0.025659649 -0.069949105
0.055205055 0.08859118 -0.0034120823 -0.051215902 -0.06866726 -0.14756553 -0.001757486 -0.013972061
-0.028022867 0.16252138 0.15858138 -0.19849803 -0.09927203 -0.08368945 -0.16612469 -0.04995936
-0.04193239 0.012698847 -0.069081195 -0.09647826 -0.206739 -0.0064662755 0.04495675 0.098808
0.057003934 0.02691955 0.09231434 0.053946458 0.039532613 -0.13908586 0.07703884 0.056247156
0.061226442 0.082589544 0.10221355 0.052392438 0.045127116 -0.05243222 -0.17120595 -0.03500299
0.05689019 0.089123406 -0.09626582 0.031331364 0.058041383 -0.18182644 0.076175794 0.061546262
-0.114024304 -0.0170482 -0.1734359 -0.038429976 -0.053301215 -0.20478198 0.0039757565 0.04264597
-0.37496218 -0.040632207 -0.07333925 0.04341988 0.016650692 -0.04146284 0.062358044 -0.16507892
-0.16349219 -0.04948901 -0.032586206 0.001251257 0.050599016 -0.051624186 -0.16654205 -0.06482965
-0.14505337 -0.16455491 -0.04695397 -0.07648044 -0.04319501 0.15011276 -0.11152351 -0.0093483925
0.07370342 0.061209578 0.036251575 -0.21659485 -0.027708087 -0.043216042 0.05208321 0.09589559
0.021774825 0.05798075 0.09199167 0.01027282 -0.183174 -0.16224533 -0.15557733 0.04553821
-0.10064867 -0.059436735 -0.004472622 -0.095580176 -0.09327956 -0.3844821 -0.27477863 -0.2951264
-0.28653488 -0.33145127 -0.10401318 -0.1833738 -0.058244653 -0.04918793 -0.07917931 0.03394924
0.108864784 0.008537209 0.085762806 0.11753381 0.06736446 0.03552472 0.021188818 -0.1313196
0.047977578 0.02466671 0.07956422 0.1269473 0.054456968 0.13068692 -0.010132618 0.07762185
-0.2588586 0.04831497 -0.03954841 0.035279114 -0.026609935 0.036949445 0.095446244 -0.07417188
0.10424877 -0.23297882 -0.25823107 -0.13966152 -0.16130733 -0.12153806 -0.06711799 -0.070154704
0.18173914 0.021346584 -0.23256996 0.07001255 -0.05147532 -0.16481787 -0.22872756 -0.26719227
-0.3413389 0.04170902 0.07297984 -0.24769841 0.06253342 -0.045582652 -0.18427429 0.07642649
0.03610996 0.026828043 0.13089384 0.116220124 0.051924765 0.08217659 0.19804381 0.03672562
0.103270605 -0.061494123 -0.17022288 -0.01443775 0.031874303 -0.047373418 -0.08622402 0.03357652
-0.062397197 -0.09414156 0.032404944 -0.045673825 0.04751667 -0.0013808315 -0.2019497 -0.11629742
00000000: eacf 80bc f86d 813e bab1 44bc ed63 9f3c
00000010: ffcb 033e e150 a8be ef37 14be e325 3dbe
00000020: a542 e4bd 6216 b03d 5c58 f93b d28e 57be
00000030: 25cf ec3c 0a4b cd3c 40ac e13d 03d5 df3d
00000040: 7cc5 0b3e 03bf 073e 08f3 e5bd 651e 0d3d
00000050: 563a 073d 2a9a 81be e306 c9bd a330 38be
00000060: 5df7 e2bd 3e4c 10be 7c7b b63a be71 1a3e
00000070: 51c8 c13d 9e5e c93d 97c8 d83c 6902 b6bc
00000080: 60b1 5ebe 8ae3 67bd 6b19 55bd 7968 92bd
00000090: 8de2 5fbd e5f1 0d3e 1df6 de3d f636 acbd
000000a0: 62ea 4ebc f68c 52be cec3 95bd a321 a63d
000000b0: ab10 3ebe 59a5 0e3d 8a1d 2d3d 495f e9bd
000000c0: 2b10 2ebd 9ea2 69bd 9d6b 8ebd 7320 d9bc
000000d0: 6322 bdbc 8872 8e3c d2a7 9bbd a8ae 543e
000000e0: e31d 663e 1137 38bb c332 5f3d 7e58 89be
000000f0: a2c4 883d 987a 06be 8f5e f1bc 226f f53c
00000100: 02d3 ac3d 7cf7 e53d d4bc ebbd cb0c 743c
00000110: 1d1a 19bd 7f55 9b3d 2f34 d2bc 7a41 8fbd
00000120: b21e 623d 4b6f b53d 3e9d 5fbb c4c7 51bd
00000130: 6ca1 8cbd 6b1b 17be 725b e6ba 12eb 64bc
00000140: 3690 e5bc 016c 263e 2863 223e 1143 4bbe
00000150: 224f cbbd 6065 abbd 971c 2abe 30a2 4cbd
00000160: 4cc1 2bbd d30e 503c 717a 8dbd 6596 c5bd
00000170: 63b3 53be 0de3 d3bb 9224 383d d95b ca3d
00000180: f57c 693d 6386 dc3c 4d0f bd3d f6f6 5c3d
00000190: f3ec 213d 866c 0ebe 8ac6 9d3d 6b63 663d
000001a0: 94c8 7a3d b524 a93d 5655 d13d 7499 563d
000001b0: 36d7 383d 2bc3 56bd 9d50 2fbe 4c5f 0fbd
000001c0: b005 693d 5586 b63d 0427 c5bd 5155 003d
000001d0: cdbc 6d3d b630 3abe 0e02 9c3d ef17 7c3d
000001e0: 9385 e9bd aba8 8bbc 2e99 31be c068 1dbd
000001f0: 6052 5abd 5eb2 51be 1047 823b 8aad 2e3d
00000200: 0bfb bfbe f56d 26bd e432 96bd 0bd9 313d
00000210: 0867 883c f0d4 29bd 266b 7f3d 730a 29be
00000220: 7f6a 27be fdb4 4abd 1d79 05bd 3801 a43a
00000230: ea40 4f3d e273 53bd 008a 2abe 68c5 84bd
00000240: df88 14be 1581 28be ce52 40bd c7a1 9cbd
00000250: 40ed 30bd 29b7 193e 7066 e4bd 002a 19bc
00000260: d2f1 963d e5b6 7a3d 887c 143d 0acb 5dbe
00000270: 12fc e2bc 4e03 31bd 3455 553d e864 c43d
00000280: 1e61 b23c 397d 6d3d 2166 bc3d 544f 283c
00000290: f791 3bbe a423 26be aa4f 1fbe 4686 3a3d
000002a0: e420 cebd ef73 73bd 138f 92bb 8abf c3bd
000002b0: 5b09 bfbd d6da c4be c9af 8cbe cf1a 97be
000002c0: b3b4 92be fbb3 a9be dd04 d5bd 57c6 3bbe
000002d0: f291 6ebd 4879 49bd c328 a2bd 5c0e 0b3d
000002e0: 80f4 de3d a6df 0b3c 69a4 af3d 91b5 f03d
000002f0: 61f6 893d 5e82 113d 2c94 ad3c a578 06be
00000300: 2384 443d d711 ca3c 91f2 a23d 79fe 013e
00000310: 450e 5f3d cbd2 053e 4803 26bc 34f8 9e3d
00000320: 1d89 84be ebe5 453d 83fd 21bd d580 103d
00000330: 14fd d9bc 4d58 173d 5279 c33d 6de7 97bd
00000340: 6180 d53d 0092 6ebe dd36 84be 6e03 0fbe
00000350: c02d 25be f2e8 f8bd 2875 89bd 45ad 8fbd
00000360: d319 3a3e 08df ae3c d226 6ebe bd62 8f3d
00000370: c9d7 52bd 04c6 28be 8f37 6abe 6dcd 88be
00000380: f9c3 aebe 14d7 2a3d 7476 953d a7a4 7dbe
00000390: 8611 803d e0b4 3abd 66b2 3cbe 7e85 9c3d
000003a0: 0ae8 133d 7cc6 db3c 0909 063e d104 ee3d
000003b0: 10af 543d 334c a83d ffcb 4a3e 9b6d 163d
000003c0: 8a7f d33d 43e1 7bbd e84e 2ebe 508c 6cbc
000003d0: a18e 023d a10a 42bd 3896 b0bd 8887 093d
000003e0: 3494 7fbd 4acd c0bd 0cbb 043d 7a14 3bbd
000003f0: d7a0 423d 04fd b4ba e7cb 4ebe 572d eebd

conv2.bias f4 [64]
-0.077715755 -0.061251353 -0.088839136 -0.112115614 -0.044475116 -0.017116405 -0.023948023 -0.10613974
-0.03395019 0.014131042 -0.12617901 -0.042375077 -0.011698397 0.001133804 -0.03335838 -0.09502714
-0.064963646 -0.03713884 -0.04450942 -0.058645625 -0.10501722 -0.098669745 -0.026871381 0.012987152
-0.06688524 -0.07814228 -0.05134388 -0.016816305 -0.08376719 0.015043845 -0.05870829 -0.0121203475
-0.044461247 -0.061546132 -0.085806385 -0.061308883 -0.039597694 -0.02821439 0.009297519 -0.04766155
-0.06991327 -0.032789107 -0.09761946 -0.08455446 -0.07773592 -0.0043125795 -0.035309553 -0.10098979
0.020216957 -0.004004797 -0.050136592 -0.067972556 -0.10878447 -0.020419516 0.012270816 -0.08509316
-0.028490253 -0.06908431 -0.021929346 0.041354366 -0.11050528 -0.036542844 -0.040238407 0.002607031
00000000: 7029 9fbd b3e2 7abd 4bf1 b5bd df9c e5bd
00000010: 8a2b 36bd b437 8cbc a52e c4bc cb5f d9bd
00000020: 5b0f 0bbd e385 673c 1235 01be 7d91 2dbd
00000030: a2aa 3fbc 269c 943a cca2 08bd 979d c2bd
00000040: a90b 85bd e51e 18bd 824f 36bd 6536 70bd
00000050: 4513 d7bd 5d13 cabd 5f21 dcbc 10c8 543c
00000060: 21fb 88bd 0f09 a0bd f64d 52bd 59c2 89bc
00000070: 228e abbd 767a 763c 1b78 70bd 6c94 46bc
00000080: ff1c 36bd cc17 7cbd 42bb afbd 061f 7bbd
00000090: 3131 22bd dd21 e7bc 9f54 183c c238 43bd
000000a0: b02e 8fbd df4d 06bd b6ec c7bd e42a adbd
000000b0: 0334 9fbd 8a50 8dbb c0a0 10bd bcd3 cebd
000000c0: 089e a53c ac3a 83bb 075c 4dbd 3235 8bbd
000000d0: 64ca debd d446 a7bc 880b 493c 5345 aebd
000000e0: 6464 e9bc 137c 8dbd 2ca5 b3bc 3263 293d
000000f0: 9850 e2bd f3ad 15bd 07d1 24bd b9da 2a3b

conv3.weight f4 [128, 64, 3, 3]
0.12942696 -0.07161596 -0.15424632 0.15192376 -0.061396632 -0.11489977 0.14691314 -0.043043323
-0.01127123 -0.02646656 0.004783781 0.027612444 -0.008039889 -0.029398823 -0.023271816 -0.02650148
0.019091832 -0.031761106 -0.18661678 -0.1758847 -0.15664034 0.012079216 0.11294674 0.043129496
0.03689858 -0.01352096 -0.03163272 -0.07145477 -0.08307164 0.24425055 -0.1901491 0.050770137
0.17700942 0.049453028 0.060153812 -0.033011142 0.05375543 0.034168545 0.029070072 -0.08722233
-0.11911253 -0.057301696 -0.06841198 -0.10923248 -0.25115514 0.08989001 0.07371141 -0.061499067
0.1330079 0.08321657 -0.07980712 -0.009089073 -0.10570125 -0.061001796 -0.047533713 0.014631282
0.22429869 -0.08943782 0.02119942 -0.087505445 -0.14974199 0.06641439 0.023303784 0.020927018
0.050114617 0.040009893 0.021163339 0.018017972 0.051626023 -0.037073284 0.0070452206 -0.029606277
0.1243772 0.15924221 -0.07277215 0.121942475 0.08970181 -0.080690585 -0.030529175 0.03515106
0.090696566 0.07772581 0.010448183 0.112325676 0.04274307 -0.08084181 -0.07702316 -0.10408166
-0.14858443 -0.029194126 -0.071630985 0.109636344 -0.012608071 -0.12611565 0.10206659 0.07024979
-0.084321566 -0.16266489 0.1464844 -0.14283514 0.048427083 0.0339892 -0.2501513 -0.16960706
-0.10081344 -0.102839425 0.015814215 0.0586669 0.08874435 -0.033071116 0.08449711 0.08395525
-0.05524437 0.040313847 -0.045433223 -0.008358565 0.116311 0.033454824 0.0011264582 0.090897724
0.012710729 -0.06766151 0.056048676 -0.005655199 -0.15164477 -0.045529533 0.038375836 0.00019210725
-0.24483873 -0.021913355 -0.04221577 -0.17269167 -0.08993093 -0.0798181 0.031261183 -0.062135894
0.02974676 0.052902855 0.076472305 -0.094085105 -0.071846545 -0.0899513 -0.11773189 -0.09040308
-0.062450945 0.13374034 -0.11276155 0.07338718 -0.023665894 -0.12411993 -0.012776605 -0.021131307
0.15671527 -0.037051085 -0.11507518 0.062486514 -0.19565287 -0.051089272 -0.0002771851 0.06679608
0.07396172 -0.07449903 -0.056437127 0.03631129 0.12817621 0.011911359 -0.059234355 -0.036402397
0.08793483 0.097107686 0.0337179 -0.077954344 -0.08260676 0.31566784 -0.08313539 -0.023666922
0.06130807 0.14368422 0.019488288 -0.0392517 -0.09157349 0.09454592 -0.042278167 -0.07026697
-0.091068245 -0.089599 -0.053184602 0.06753183 0.055779405 0.07435476 0.022405444 0.07887302
0.05704253 -0.10490978 -0.13440183 -0.0015317637 0.003928438 -0.14367716 0.003799468 0.013423637
0.12330134 0.026353143 -0.021365346 0.07038782 0.12303229 -0.010277705 -0.18127282 -0.13191417
-0.12964009 0.07552217 -0.034450077 -0.013495995 0.106805146 -0.09636154 -0.15905437 -0.11743891
-0.18004295 -0.06573461 -0.025753254 -0.12704907 0.06654532 0.08197468 -0.037660975 -0.079027966
0.0681249 0.09103685 -0.07199536 -0.3415044 0.012382986 -0.0753001 -0.21494845 0.027721709
0.06432541 -0.08674327 0.039026104 0.014105125 -0.05708424 -0.07984424 -0.045462087 0.010339258
0.048997678 -0.046804383 -0.041171405 0.022205314 -0.06588566 0.05899788 -0.0061463118 -0.20838916
-0.111954644 -0.015520716 0.040491723 -0.1676346 0.14618053 0.089146346 -0.0097051235 -0.014948593
00000000: 8088 043e 63ab 92bd bff2 1dbe e791 1b3e
00000010: 097b 7bbd 9250 ebbd 6670 163e 324e 30bd
00000020: f7aa 38bc 66d0 d8bc 43c1 9c3b 7e33 e23c
00000030: bdb9 03bc cdd5 f0bc 89a4 bebc a219 d9bc
00000040: 7966 9c3c ef17 02bd 7818 3fbe 1e1b 34be
00000050: 5366 20be e7e7 453c 9f50 e73d 8ea8 303d
00000060: f722 173d 0487 5dbc 5091 01bd e156 92bd
00000070: 7721 aabd d11c 7a3e 72b6 42be 59f4 4f3d
00000080: f541 353e 428f 4a3d d863 763d b136 07bd
00000090: a72e 5c3d 51f4 0b3d 5c24 ee3c 9fa1 b2bd
000000a0: 45f1 f3bd 2fb5 6abd 951b 8cbd 47b5 dfbd
000000b0: 6897 80be 4118 b83d 02f6 963d 72e6 7bbd
000000c0: 3933 083e 736d aa3d ea71 a3bd 56ea 14bc
000000d0: e679 d8bd 05dd 79bd b6b2 42bd 0bb8 6f3c
000000e0: 8eae 653e 2d2b b7bd 68aa ad3c 0e36 b3bd
000000f0: f755 19be 4504 883d 94e7 be3c 236f ab3c
00000100: fc44 4d3d 6ae1 233d bd5e ad3c 6d9a 933c
00000110: cf75 533d 28da 17bd 98db e63b dd88 f2bc
00000120: 79b9 fe3d 6410 233e 9109 95bd fabc f93d
00000130: 95b5 b73d 1b41 a5bd 5218 fabc 8ffa 0f3d
00000140: 1fbf b93d b62e 9f3d db2e 2b3c 010b e63d
00000150: 5b13 2f3d 6490 a5bd 52be 9dbd c428 d5bd
00000160: 8426 18be 8528 efbc 44b3 92bd 0589 e03d
00000170: 1592 4ebc 7624 01be 4a08 d13d 1fdf 8f3d
00000180: c9b0 acbd a091 26be 0200 163e 6043 12be
00000190: 7a5b 463d 4238 0b3d d513 80be 79ad 2dbe
000001a0: 4777 cebd 7a9d d2bd d08c 813c b44c 703d
000001b0: 99bf b53d 9475 07bd d20c ad3d bbf0 ab3d
000001c0: ec47 62bd 2220 253d 3018 3abd 5df2 08bc
000001d0: 7634 ee3d ed07 093d aaa5 933a 9628 ba3d
000001e0: a940 503c 1e92 8abd 4c93 653d 3f4f b9bb
000001f0: c448 1bbe 2d7d 3abd fb2f 1d3d 6670 4939
00000200: 01b7 7abe a383 b3bc 71ea 2cbd 16d6 30be
00000210: b52d b8bd ac77 a3bd ba0b 003d 3582 7ebd
00000220: 7aaf f33c aab0 583d 839d 9c3d b1af c0bd
00000230: 4824 93bd 6338 b8bd 6b1d f1bd 4025 b9bd
00000240: 90cc 7fbd 3af3 083e 87ef e6bd 054c 963d
00000250: fade c1bc 9732 febd f754 51bc 901b adbc
00000260: f879 203e e1c2 17bd 89ac ebbd dcf1 7f3d
00000270: 3a59 48be fc42 51bd 2853 91b9 62cc 883d
00000280: 3e79 973d f392 98bd 9e2a 67bd 26bb 143d
00000290: a040 033e dc27 433c b99f 72bd ae1a 15bd
000002a0: 2d17 b43d 65e0 c63d c81b 0a3d 87a6 9fbd
000002b0: bc2d a9bd 379f a13e e342 aabd 22e1 c1bc
000002c0: 2c1e 7b3d f521 133e e7a5 9f3c 64c6 20bd
000002d0: e28a bbbd 4ba1 c13d df2b 2dbd 21e8 8fbd
000002e0: fd81 babd ae7f b7bd 19d8 59bd 214e 8a3d
000002f0: f278 643d 4f47 983d 9f8b b73c 2e88 a13d
00000300: 6ea5 693d f0da d6bd a2a0 09be 76c5 c8ba
00000310: 20ba 803b 1b20 13be 7f00 793b d0ee 5b3c
00000320: 6a85 fc3d 8ce2 d73c 6106 afbc 7d27 903d
00000330: 5af8 fb3d d263 28bc 959f 39be 8214 07be
00000340: 5fc0 04be 5eab 9a3d 861b 0dbd 4e1e 5dbc
00000350: a8bc da3d 3359 c5bd 26df 22be d083 f0bd
00000360: 2e5d 38be de9f 86bd 7df8 d2bc 2719 02be
00000370: ea48 883d 57e2 a73d 6542 1abd 6ad9 a1bd
00000380: 1185 8b3d 8771 ba3d 4e72 93bd aad9 aebe
00000390: 02e2 4a3c f036 9abd 721b 5cbe a318 e33c
000003a0: 0abd 833d 75a6 b1bd d6d9 1f3d 2f19 673c
000003b0: 2ad1 69bd 6085 a3bd 7436 3abd fe65 293c
000003c0: cab1 483d f4b5 3fbd 59a3 28bd ebe7 b53c
000003d0: 10ef 86bd c3a7 713d 0067 c9bb f863 55be
000003e0: 7a48 e5bd 9a4a 7ebc a6da 253d 68a8 2bbe
000003f0: 59b0 153e 5c92 b63d 3d02 1fbc f2ea 74bc

conv3.bias f4 [128]
-0.09210774 -0.051519573 -0.04186012 -0.05718197 -0.08300262 0.060719963 -0.007354556 -0.038664427
-0.07345525 0.061083924 -0.049548868 -0.050702114 0.0115763275 -0.041769493 -0.049731545 -0.061645254
-0.07970144 -0.03781335 -0.052840885 -0.02116809 -0.013518569 0.0007218214 -0.053386364 -0.061388366
0.009747137 -0.021528289 -0.018769724 -0.04652377 0.008573102 -0.024480844 -0.01552143 -0.028874647
-0.05343654 -0.08839422 -0.0568243 -0.03508881 0.0072664865 -0.096827865 -0.035615858 -0.06937748
-0.018232228 -0.05108543 -0.024074754 -0.07710708 -0.01710185 -0.02639194 0.02721765 0.00359839
-0.034792237 -0.021523513 -0.058145966 -0.006830131 -0.05057791 -0.050565723 -0.05371307 -0.005563125
-0.023746077 -0.011669085 -0.01191903 -0.059023924 -0.093095325 -0.093715616 -0.021111501 0.043008927
-0.011873873 -0.010860148 0.022897035 -0.01813657 0.0032176212 -0.006282525 -0.02261763 -0.11960636
0.016802978 -0.07210909 -0.029863376 0.0104076145 -0.09434706 -0.02010875 -0.0011226066 -0.065977976
0.038205583 -0.05153074 -0.009538978 -0.07553973 -0.047082324 -0.038422182 -0.03254518 -0.006168434
-0.06421108 -0.057137467 0.00975035 0.027853558 0.016183788 -0.112550616 -0.033778094 -0.048436206
-0.024407728 -0.09493659 -0.009925806 -0.05787801 -0.065283075 -0.04765054 -0.028945738 0.023689196
-0.10313699 -0.004788755 0.020962022 -0.036556777 0.0066469884 0.022716524 -0.038897995 -0.14686912
-0.016906569 -0.0377288 -0.0575903 -0.07131827 -0.019393269 -0.025026836 -0.024836974 -0.05517074
-0.032166187 -0.0071322615 -0.04361732 -0.07795176 -0.028025655 -0.004678756 -0.05671234 -0.07029816
00000000: fca2 bcbd 3006 53bd 8475 2bbd a437 6abd
00000010: 47fd a9bd 7fb5 783d 7dfe f0bb 975e 1ebd
00000020: b56f 96bd 2333 7a3d c1f3 4abd 05ad 4fbd
00000030: a3aa 3d3c 7d16 2bbd 4eb3 4bbd bc7f 7cbd
00000040: 823a a3bd 2ce2 1abd af6f 58bd b468 adbc
00000050: fd7c 5dbc 9d38 3d3a a9ab 5abd 5e72 7bbd
00000060: 75b2 1f3c 185c b0bc f7c2 99bc b58f 3ebd
00000070: 3276 0c3c 0d8c c8bc 994d 7ebc 868a ecbc
00000080: 46e0 5abd 0708 b5bd 99c0 68bd 49b9 0fbd
00000090: b51b ee3b b04d c6bd efe1 11bd c815 8ebd
000000a0: c15b 95bc f53e 51bd 6b38 c5bc 51ea 9dbd
000000b0: 2e19 8cbc e933 d8bc 8df7 de3c f7d2 6b3b
000000c0: 4e82 0ebd 1452 b0bc 772a 6ebd 4bcf dfbb
000000d0: c82a 4fbd 011e 4fbd 3c02 5cbd e04a b6bb
000000e0: 2287 c2bc b12f 3fbc 0948 43bc 12c3 71bd
000000f0: c3a8 bebd f9ed bfbd 07f2 acbc 212a 303d
00000100: a28a 42bc c3ee 31bc 9092 bb3c 2593 94bc
00000110: bade 523b a4dd cdbb 9c48 b9bc 2ef4 f4bd
00000120: 66a6 893c eead 93bd 0aa4 f4bc b384 2a3c
00000130: 0839 c1bd 1bbb a4bc 6d24 93ba 761f 87bd
00000140: 757d 1c3d e611 53bd 6049 1cbc 93b4 9abd
00000150: 65d9 40bd 9460 1dbd 184e 05bd 9320 cabb
00000160: 1981 83bd fa08 6abd efbf 1f3c 252d e43c
00000170: dd93 843c f080 e6bd e65a 0abd 0b65 46bd
00000180: b7f2 c7bc 1d6e c2bd d99f 22bc 7e11 6dbd
00000190: 22b3 85bd 362d 43bd 9d1f edbc d80f c23c
000001a0: 7c39 d3bd fdea 9cbb 8cb8 ab3c 8fbc 15bd
000001b0: fbce d93b 0118 ba3c 8153 1fbd dc64 16be
000001c0: a57f 8abc 8489 1abd cee3 6bbd 500f 92bd
000001d0: a2de 9ebc 1405 cdbc e976 cbbc b7fa 61bd
000001e0: b1c0 03bd bfb5 e9bb 13a8 32bd 2ca5 9fbd
000001f0: 0f96 e5bc 4050 99bb 334b 68bd 7bf8 8fbd

fc1.weight f4 [10, 128]
0.08284775 -0.037373457 -0.0763704 -0.1114384 -0.19227745 0.067580074 0.11723771 -0.25018835
0.11688461 0.07122668 -0.021869618 0.07757497 0.0612355 0.0037159855 -0.087292105 -0.19903153
-0.14815271 0.079673044 -0.24735059 -0.28887853 -0.24989761 -0.23196903 0.12907961 0.072072476
-0.084035225 -0.00984476 0.0048359926 0.13286044 -0.17332824 -0.18382165 -0.017679473 0.09063554
0.11625008 0.14171936 0.009174818 -0.10397072 0.11580794 -0.11530124 -0.15236753 -0.1224673
-0.031986848 0.16707964 0.060198616 -0.22979026 -0.2743548 0.074235395 -0.01633153 0.06380151
-0.0964794 0.053512722 0.026946984 -0.03093383 0.12854548 -0.051338155 -0.1451796 -0.19093606
-0.0980811 -0.06814123 0.031585995 0.14728251 0.034687724 -0.2490016 -0.020619538 -0.26907328
-0.10172014 -0.049626328 -0.1500245 -0.068668835 -0.014495814 0.08576646 0.17104113 -0.1629739
-0.1649537 0.11429564 -0.18111712 0.10336171 -0.15433301 0.06519467 0.09426378 0.040286705
-0.036838584 -0.18489385 -0.08163613 0.08702577 0.09544343 -0.16687489 0.02321647 -0.16766463
-0.12301795 -0.014156105 -0.08158513 0.010322884 0.18316422 0.13518058 0.0092278775 -0.21796416
-0.03225171 0.10191276 0.028651249 -0.12167353 0.045744278 0.12810764 -0.087526016 -0.35834882
-0.091613434 -0.1099363 0.16823271 -0.122110866 0.012642122 -0.03153087 0.015676532 -0.24020034
-0.21645182 -0.27798045 -0.059777606 -0.036394373 -0.05152525 -0.14865784 -0.072778456 0.06941379
0.09002732 0.028314548 -0.18290007 0.07057959 0.07145594 0.052905317 -0.26985797 -0.07329141
-0.31397375 -0.06020757 -0.102720805 -0.07779107 0.04118123 0.06425939 -0.33120772 -0.042603515
0.051120743 0.07729741 -0.010730266 -0.25867507 0.0050296383 -0.030378656 -0.076927945 -0.14423686
0.053413235 0.04134194 0.13810042 0.2188311 -0.20823431 -0.22966126 -0.36369666 0.00274626
0.0070087225 -0.3208483 0.10458861 -0.17894617 0.16928495 -0.084946394 -0.3529586 -0.0628309
-0.07102607 -0.30074075 -0.033875365 -0.065250464 0.099035 -0.29928204 0.1705033 -0.19391364
0.13186571 -0.38835302 0.10876865 0.14628743 0.096894346 -0.08882067 -0.044386856 -0.052568093
-0.23700343 0.049758825 0.032073904 -0.06678297 -0.2996643 0.037712365 0.11552623 -0.20278712
-0.008296811 0.18146186 0.057780232 -0.29956087 -0.06755557 -0.023538262 0.1556767 0.19461384
0.11439997 0.21672337 -0.008212318 0.04858368 0.10713383 -0.32053375 -0.23594032 0.12380596
0.087176666 -0.16610955 -0.004795253 0.13444546 -0.10739453 -0.31999195 0.008151561 -0.27665812
-0.35417885 -0.17249298 -0.006517407 -0.20685755 0.17143105 -0.052550055 0.013532101 -0.036047813
0.04232427 -0.037670877 -0.0013483374 -0.08294419 -0.24414922 0.1176664 -0.302075 0.032775406
0.14128096 -0.2030102 -0.069572724 0.025925249 0.20880589 0.06138477 -0.25338686 0.09101235
-0.049985588 -0.22020526 -0.18216336 -0.2722465 -0.04336096 -0.02182956 0.033218388 -0.06465689
0.077682085 -0.19234893 -0.34890804 -0.11012382 0.021081802 0.0027414372 0.18224493 0.15701534
0.042059965 -0.16654265 0.10143507 0.052064575 -0.02500409 -0.09396978 0.08373562 0.024270656
00000000: 15ac a93d e914 19bd 1668 9cbd d139 e4bd
00000010: 61e4 44be 6c67 8a3d 531a f03d b018 80be
00000020: 3361 ef3d 4bdf 913d ea27 b3bc a0df 9e3d
00000030: 13d2 7a3d e487 733b 34c6 b2bd ecce 4bbe
00000040: 58b5 17be 9f2b a33d 7949 7dbe e3e7 93be
00000050: 29e5 7fbe 4a89 6dbe 722d 043e bc9a 933d
00000060: a91a acbd eb4b 21bc 3f77 9e3b 910c 083e
00000070: f57c 31be be3b 3cbe 8bd4 90bc 209f b93d
00000080: 8614 ee3d e11e 113e fa51 163c 9aee d4bd
00000090: b72c ed3d 0e23 ecbd 3c06 1cbe 23d0 fabd
000000a0: a404 03bd ed16 2b3e d392 763d 234e 6bbe
000000b0: 3b78 8cbe ba08 983d b3c9 85bc 5eaa 823d
000000c0: fe96 c5bd 2830 5b3d ecbf dc3c f268 fdbc
000000d0: 6da1 033e f547 52bd f6a9 14be be84 43be
000000e0: bede c8bd a18d 8bbd 5160 013d 3ad1 163e
000000f0: b714 0e3d 47fa 7ebe 4eea a8bc f9c3 89be
00000100: a652 d0bd fa44 4bbd 06a0 19be 3fa2 8cbd
00000110: da7f 6dbc 53a6 af3d 6825 2f3e a1e2 26be
00000120: 9fe9 28be d513 ea3d c476 39be 4eaf d33d
00000130: 7909 1ebe c884 853d 5e0d c13d ac03 253d
00000140: 0ee4 16bd d054 3dbe d830 a7bd 913a b23d
00000150: d877 c33d 40e1 2abe 7730 be3c 47b0 2bbe
00000160: d6f0 fbbd 02ef 67bc 1b16 a7bd 5021 293c
00000170: 678f 3b3e c76c 0a3e 8630 173c ff31 5fbe
00000180: 5e1a 04bd a3b7 d03d 06b6 ea3c f92f f9bd
00000190: 5a5e 3b3d a62e 033e d740 b3bd 7f79 b7be
000001a0: d39f bbbd 4826 e1bd 3245 2c3e 4315 fabd
000001b0: e720 4f3c 8326 01bd 126c 803c 14f7 75be
000001c0: 8ca5 5dbe 7453 8ebe 5dd9 74bd 4412 15bd
000001d0: 240c 53bd c339 18be df0c 95bd d128 8e3d
000001e0: 3e60 b83d e9f3 e73c 284a 3bbe 088c 903d
000001f0: 7e57 923d 3fb3 583d d32a 8abe cf19 96bd
00000200: 2bc1 a0be 379c 76bd 495f d2bd ed50 9fbd
00000210: a6ad 283d 6d9a 833d 0f94 a9be 0681 2ebd
00000220: fc63 513d 1b4e 9e3d ffcd 2fbc 0f71 84be
00000230: aacf a43b a9dc f8bc 668c 9dbd d4b2 13be
00000240: d6c7 5a3d 2b56 293d 326a 0d3e 4315 603e
00000250: 603b 55be 522c 6bbe 7336 babe 99fa 333b
00000260: 6da9 e53b 3a46 a4be 8e32 d63d aa3d 37be
00000270: 0959 2d3e 60f8 adbd fdb6 b4be 7dad 80bd
00000280: 1e76 91bd b1fa 99be e5c0 0abd 09a2 85bd
00000290: ddd2 ca3d 7f3b 99be 6b98 2e3e 4c91 46be
000002a0: ce07 073e 35d6 c6be 19c2 de3d 5fcc 153e
000002b0: 8b70 c63d 9de7 b5bd fece 35bd a451 57bd
000002c0: 07b1 72be e9cf 4b3d ed5f 033d 83c5 88bd
000002d0: 996d 99be 4878 1a3d 0499 ec3d 6da7 4fbe
000002e0: 59ef 07bc 23d1 393e f7aa 6c3d 0b60 99be
000002f0: 935a 8abd 50d3 c0bc b669 1f3e da48 473e
00000300: 884a ea3d bbec 5d3e f58c 06bc aeff 463d
00000310: fb68 db3d 001d a4be 579a 71be fb8d fd3d
00000320: ae89 b23d 9f18 2abe 7f21 9dbb 12ac 093e
00000330: aaf1 dbbd fcd5 a3be 208e 053c 22a6 8dbe
00000340: ee56 b5be 00a2 30be f98f d5bb 77d2 53be
00000350: 9f8b 2f3e ba3e 57bd bfb5 5d3c dfa6 13bd
00000360: 375c 2d3d c74c 1abd b2ba b0ba a5de a9bd
00000370: 4102 7abe 15fb f03d 93a9 9abe 813f 063d
00000380: f5ab 103e e8e1 4fbe 257c 8ebd 3061 d43c
00000390: 36d1 553e 996e 7b3d ecbb 81be af64 ba3d
000003a0: b0bd 4cbd 7d7d 61be 0889 3abe e563 8bbe
000003b0: 439b 31bd e8d3 b2bc 0110 083d d56a 84bd
000003c0: c917 9f3d 1ef7 44be 13a4 b2be 9988 e1bd
000003d0: beb3 ac3c afa9 333b 6a9e 3a3e a1c8 203e
000003e0: 1247 2c3d 288a 2abe 31bd cf3d aa41 553d
000003f0: 61d5 ccbc 3a73 c0bd 957d ab3d 41d3 c63c

fc1.bias f4 [10]
0.29609114 0.24776995 -0.3154956 0.00078390446 0.048411872 -0.029709214 -0.10076888 0.16207504
-0.10802967 -0.31892762
00000000: 4299 973e 68b7 7d3e a488 a1be f07e 4d3a
00000010: 874b 463d bd60 f3bc ea5f cebd 00f7 253e
00000020: a93e ddbd 7b4a a3be
